Model: "model"
_________________________________________________________________
Layer (type)                 Output Shape              Param #   
=================================================================
conv2d_input (InputLayer)    [(None, 28, 28, 1)]       0         
_________________________________________________________________
conv2d (Conv2D)              (None, 26, 26, 32)        320       
_________________________________________________________________
conv2d_1 (Conv2D)            (None, 24, 24, 32)        9248      
_________________________________________________________________
max_pooling2d (MaxPooling2D) (None, 12, 12, 32)        0         
_________________________________________________________________
dropout (Dropout)            (None, 12, 12, 32)        0         
_________________________________________________________________
flatten (Flatten)            (None, 4608)              0         
_________________________________________________________________
dense (Dense)                (None, 128)               589952    
=================================================================
Total params: 599,520
Trainable params: 599,520
Non-trainable params: 0
_________________________________________________________________
(1, 128)
below are the distances of the first embedding from the rest of the embeddings
… The predicted class for this test example is alpha with the least ssd being 760.92596
And the sorted 
…
